…
        [-4.7136e-03,  1.7899e-02, -1.7409e-02,  ...,  2.1148e-02,
          8.9840e-03, -1.5409e-02],
        ...,
        [ 2.1704e-04,  1.8968e-02, -7.3825e-05,  ..., -1.5189e-02,
          1.1065e-02,  1.0711e-02],
        [ 3.1059e-03, -9.1475e-03,  6.2117e-03,  ...,  4.6018e-03,
          6.6210e-04, -1.6030e-02],
        [ 5.4619e-03, -1.5121e-02, -6.4027e-03,  ...,  1.7131e-03,
         -3.1510e-03,  1.1321e-02]], device='cuda:0', requires_grad=True)INFO:root:DistributedDataParallel(
  (module): FinetuningModel(
    (pretrained_model): VisionTransformer(
      (patch_embed): PatchEmbed(
        (proj): Conv2d(3, 1280, kernel_size=(14, 14), stride=(14, 14))
      )
      (blocks): ModuleList(
        (0-31): 32 x Block(
          (norm1): LayerNorm((1280,), eps=1e-06, elementwise_affine=True)
          (attn): Attention(
            (qkv): Linear(in_features=1280, out_features=3840, bias=True)
            (attn_drop): Dropout(p=0.0, inplace=False)
            (proj): Linear(in_features=1280, out_features=1280, bias=True)
            (proj_drop): Dropout(p=0.0, inplace=False)
          )
          (drop_path): Identity()
          (norm2): LayerNorm((1280,), eps=1e-06, elementwise_affine=True)
          (mlp): MLP(
            (fc1): Linear(in_features=1280, out_features=5120, bias=True)
            (act): GELU(approximate='none')
            (fc2): Linear(in_features=5120, out_features=1280, bias=True)
            (drop): Dropout(p=0.0, inplace=False)
          )
        )
      )
      (norm): LayerNorm((1280,), eps=1e-06, elementwise_affine=True)
    )
    (average_pool): AvgPool1d(kernel_size=(256,), stride=(1,), padding=(0,))
    (norm): LayerNorm((1280,), eps=1e-05, elementwise_affine=True)
    (head_drop): Dropout(p=0.25, inplace=False)
    (mlp_head): Linear(in_features=1280, out_features=80000, bias=True)
  )
)
INFO:root:Epoch 1

True
p Parameter containing:
tensor([-0.0587,  0.1772, -0.0652,  ..., -0.0962,  0.0242,  0.0020],
       device='cuda:0', requires_grad=True)
True
p Parameter containing:
tensor([[ 0.0026, -0.0099,  0.0019,  ...,  0.0101, -0.0087, -0.0030],
        [-0.0121, -0.0147,  0.0119,  ...,  0.0017,  0.0045,  0.0013],
        [ 0.0036, -0.0013, -0.0029,  ...,  0.0020, -0.0049, -0.0013],
…
