…
                        'ipe_scale': 1.0,
                        'label_smoothing': 0.1,
                        'lr': 0.0025,
                        'start_lr': 0.001,
                        'warmup': 5,
                        'weight_decay': 0.05}}
Training dataset, length: 584640
Val dataset, length: 136512
Mixup is activated!
['encoder', 'predictor', 'opt', 'scaler', 'target_encoder', 'epoch', 'loss', 'batch_size', 'world_size', 'lr']
INFO:root:DistributedDataParallel(
  (module): FinetuningModel(
    (pretrained_model): VisionTransformer(
      (patch_embed): PatchEmbed(
        (proj): Conv2d(3, 1280, kernel_size=(14, 14), stride=(14, 14))
      )
      (blocks): ModuleList(
        (0-31): 32 x Block(
          (norm1): LayerNorm((1280,), eps=1e-06, elementwise_affine=True)
          (attn): Attention(
            (qkv): Linear(in_features=1280, out_features=3840, bias=True)
            (attn_drop): Dropout(p=0.0, inplace=False)
            (proj): Linear(in_features=1280, out_features=1280, bias=True)
            (proj_drop): Dropout(p=0.0, inplace=False)
          )
          (drop_path): Identity()
          (norm2): LayerNorm((1280,), eps=1e-06, elementwise_affine=True)
          (mlp): MLP(
            (fc1): Linear(in_features=1280, out_features=5120, bias=True)
            (act): GELU(approximate='none')
            (fc2): Linear(in_features=5120, out_features=1280, bias=True)
            (drop): Dropout(p=0.0, inplace=False)
          )
        )
      )
      (norm): LayerNorm((1280,), eps=1e-06, elementwise_affine=True)
    )
    (average_pool): AvgPool1d(kernel_size=(256,), stride=(1,), padding=(0,))
    (norm): LayerNorm((1280,), eps=1e-05, elementwise_affine=True)
    (head_drop): Dropout(p=0.25, inplace=False)
    (mlp_head): Linear(in_features=1280, out_features=80000, bias=True)
  )
)
INFO:root:Epoch 1
{   'data': {   'batch_size': 96,
                'color_jitter_strength': 0.0,
                'crop_scale': [0.3, 1.0],
                'crop_size': 224,
                'cutmix': 1.0,
                'drop_path': 0.25,
                'image_folder': 'LifeCLEFPlant2022/',
                'mixup': 0.8,
                'nb_classes': 80000,
…
